models/ppo_epoch_10000_critic.pth (torch, 23582 bytes, 5 tensors)

0.weight f4 [64, 14]
-0.5202708 -0.07449483 0.90974706 -0.30263308 -0.061361033 -0.08004648 0.16323507 -0.23445188
0.18217407 0.31336594 -0.07287135 0.10885036 -0.03390033 -0.21044742 -0.13375041 -0.09234913
-0.34313765 4.2705167e-05 -0.25953636 -0.046037484 -0.561778 -0.09847276 -0.30674297 0.042942077
-0.32309908 0.13659361 0.17512693 0.14315423 -0.054048914 0.09567638 0.5357351 -0.17721997
0.26242915 -0.08353433 0.6415045 -0.17293316 0.24070589 0.28585857 -0.12335259 0.3248369
-0.11659254 -0.19954197 -0.2192209 -0.29170236 0.20230432 0.15608661 0.124582164 0.22438651
0.3465425 0.07182594 0.30192995 0.010357714 0.03178154 0.058175176 0.16331707 0.27632704
0.2106473 0.30569777 -0.46471208 0.0066076755 0.08293443 0.15212382 0.23730598 0.101736054
0.43902546 0.24282767 -0.41595885 0.027295955 0.004020906 -0.5198083 -0.18295015 0.105838895
0.27422833 -0.07731514 0.041020393 -0.10859002 -0.016166477 0.14918795 -0.03989327 0.029142452
0.29396182 0.3423587 0.4306653 0.45722967 -0.3093998 -0.2674617 0.530072 0.6300442
0.12965176 0.14449216 0.122194104 0.14818646 0.15119761 0.31046462 -0.028577475 0.08730457
0.15115152 0.1845078 0.17205907 0.07913955 0.0064783343 -0.15425128 0.17751876 0.12274847
0.3957792 -0.05566259 0.33633214 0.25248653 -0.0014220673 -0.23758975 -0.41718456 -0.3104982
-0.48829558 0.33482364 0.78639585 -0.3990018 -0.059120893 -0.008559361 0.23269106 0.07329387
0.21746157 0.03869671 0.15072376 -0.09011227 -0.118672535 -0.35830632 -0.6129781 0.36179885
1.2007324 -0.44575486 0.22792593 -0.38566744 0.038259346 0.1861184 0.24137402 0.046501227
0.11448061 -0.17057429 0.23449054 -0.13922133 -0.1983202 -0.4335113 -0.2559592 0.41725016
0.04757903 0.10301121 -0.3360018 -0.11441823 0.22657323 -0.09955993 -0.07158522 -0.09662785
-0.15944657 -0.1289121 -0.29915145 -0.028686207 -0.58545613 -0.64125603 0.095363125 -0.14899665
-0.48914722 -0.23868988 -0.30141416 -0.36824882 -0.20734124 -0.12982227 -0.1757403 -0.25319585
-0.42514542 -0.32488713 -0.2978915 -0.2268497 0.0879636 -0.2636649 -0.27939707 -0.32582724
-0.060789086 -0.31283155 -0.40985742 -0.4875311 -0.118121006 -0.0313279 0.16689353 0.11189029
-0.56338143 -0.5900895 -0.024450315 0.16693725 -0.19315608 -0.25671136 -0.08698412 -0.1669587
-0.18844928 -0.17203741 -0.28857192 -0.03491035 -0.5763327 -0.25373438 1.4410027 0.028447686
-0.002445727 0.0622429 0.20649736 0.16344364 0.20130229 0.3008352 -0.13766478 -0.043542057
0.42817077 0.009883635 0.121761836 0.08644785 -0.45370007 0.11075296 0.042471223 0.17086014
0.1491558 0.20807418 -0.17055716 -0.438963 0.02272055 -0.19608957 -0.16025497 0.015413372
0.49784863 -0.2256782 -0.45033953 -0.2029895 0.029074846 -0.03634087 0.11138475 0.36648703
0.1448436 -0.11719753 0.15374869 0.11446702 0.29426277 0.08655184 -0.41942105 0.07677501
-0.20398858 -0.71310735 -0.10772895 -0.065702625 -0.22161905 -0.30502164 -0.20432425 -0.10727935
-0.16741633 -0.38007882 -0.22154607 -0.49157113 -0.34298754 -0.3182935 0.6439328 0.19929412
00000000: 7830 05bf bf90 98bd 2fe5 683f b9f2 9abe
00000010: b555 7bbd 69ef a3bd 1827 273e 2714 70be
00000020: d78b 3a3e 8071 a03e 933d 95bd f0ec de3d
00000030: 13db 0abd 877f 57be def5 08be 8a21 bdbd
00000040: bdaf afbe 531e 3338 f3e1 84be cd91 3cbd
00000050: afd0 0fbf 16ac c9bd 6a0d 9dbe 08e4 2f3d
00000060: 3e6d a5be 32df 0b3e 7954 333e 0697 123e
00000070: 6562 5dbd faf1 c33d ef25 093f 2779 35be
00000080: 1d5d 863e 0c14 abbd a439 243f 6415 31be
00000090: 9b7b 763e 0e5c 923e 48a0 fcbd 0651 a63e
000000a0: 12c8 eebd bb54 4cbe 727b 60be 035a 95be
000000b0: dd28 4f3e 2bd5 1f3e ef24 ff3d 94c5 653e
000000c0: 056e b13e 7a19 933d 9096 9a3e 67b3 293c
000000d0: 5c2d 023d 1849 6e3d 973c 273e bd7a 8d3e
000000e0: edb3 573e 6b84 9c3e beee edbe 3385 d83b
000000f0: 87d9 a93d 59c6 1b3e 5700 733e fe5a d03d
00000100: f2c7 e03e d1a7 783e 8ff8 d4be c49b df3c
00000110: cec1 833b 2812 05bf 4957 3bbe 10c2 d83d
00000120: a867 8c3e 6657 9ebd 0005 283d 7264 debd
00000130: 8f6f 84bc bac4 183e 2067 23bd 27bc ee3c
00000140: 2a82 963e a449 af3e 2a80 dc3e 021a ea3e
00000150: a769 9ebe bdf0 88be ccb2 073f 944a 213f
00000160: 6ec3 043e c1f5 133e e740 fa3d 31be 173e
00000170: 8cd3 1a3e 38f5 9e3e 4f1b eabc bdcc b23d
00000180: 77c7 1a3e 9def 3c3e 4130 303e eb13 a23d
00000190: 3548 d43b 0cf4 1dbe 7ac7 353e 8d63 fb3d
000001a0: 92a3 ca3e 75fe 63bd ba33 ac3e ea45 813e
000001b0: a964 baba ba4a 73be 3799 d5be 9ff9 9ebe
000001c0: e101 fabe 016e ab3e 3d51 493f f749 ccbe
000001d0: c028 72bd 903c 0cbc 9146 6e3e 191b 963d
000001e0: 3fae 5e3e 7180 1e3d 5457 1a3e c88c b8bd
000001f0: 960a f3bd ed73 b7be 22ec 1cbf b33d b93e
00000200: 99b1 993f fb39 e4be 6a65 693e 3476 c5be
00000210: d5b5 1c3d d295 3e3e c02a 773e 1278 3e3d
00000220: cf74 ea3d 07ab 2ebe 4a1e 703e 0990 0ebe
00000230: 7314 4bbe 31f5 ddbe 160d 83be d0a1 d53e
00000240: 3be2 423d 8bf7 d23d 6e08 acbe 1b54 eabd
00000250: d002 683e 14e6 cbbd 469b 92bd d2e4 c5bd
00000260: f645 23be 8901 04be 612a 99be 56ff eabc
00000270: 74e0 15bf 5b29 24bf be4d c33d 9492 18be
00000280: 8171 fabe 1f6b 74be f552 9abe 1c8b bcbe
00000290: 4351 54be 21f0 04be 44f5 33be e3a2 81be
000002a0: a9ac d9be 9b57 a6be 3c85 98be 4a4b 68be
000002b0: 4326 b43d 16ff 86be 220d 8fbe d4d2 a6be
000002c0: fafd 78bd 752b a0be d5d8 d1be ad9d f9be
000002d0: 6de9 f1bd af51 00bd 23e6 2a3e bd26 e53d
000002e0: c439 10bf 1b10 17bf 074c c8bc 99f1 2a3e
000002f0: b5ca 45be ac6f 83be bb24 b2bd 39f7 2abe
00000300: d9f8 40be 932a 30be b3bf 93be 28fe 0ebd
00000310: 8a8a 13bf 79e9 81be c772 b83f 1f0b e93c
00000320: 7d48 20bb 69f2 7e3d 0b74 533e c55d 273e
00000330: 3022 4e3e 1207 9a3e fff7 0cbe 2859 32bd
00000340: 3339 db3e f8ee 213c 455e f93d 920b b13d
00000350: 604b e8be 73d2 e23d 4ef6 2d3d f6f5 2e3e
00000360: 4cbc 183e 6611 553e 89a6 2ebe c2bf e0be
00000370: 7220 ba3c b4cb 48be e119 24be 5e88 7c3c
00000380: 04e6 fe3e 3018 67be e792 e6be 7bdc 4fbe
00000390: 5f2e ee3c 2ada 14bd b01d e43d 30a4 bb3e
000003a0: e151 143e 4205 f0bd 4c70 1d3e af6d ea3d
000003b0: 9ca9 963e 1742 b13d 5bbe d6be 373c 9d3d
000003c0: 62e2 50be 348e 36bf ffa0 dcbd 198f 86bd
000003d0: 1bf0 62be cc2b 9cbe 603a 51be 47b5 dbbd
000003e0: 306f 2bbe b199 c2be f9dc 62be 36af fbbe
000003f0: 109c afbe 5ef7 a2be c8d8 243f c213 4c3e

0.bias f4 [64]
0.021305438 0.30626163 -0.24733716 -0.6297425 0.12675638 -0.43191263 0.49072585 0.23199332
-0.19585918 0.19597265 0.5085614 -0.641957 -0.32203093 -0.51972675 0.11923928 0.067208156
-0.17784967 -0.086044505 -0.06642822 0.06527666 -0.30406612 -0.11584359 0.27825752 -0.20811711
-0.40180197 -0.15982541 0.44993746 -0.12170475 -0.13608909 0.02033697 -0.13178875 -0.43751466
-0.40462282 -0.146217 -0.56850684 0.29513597 0.3544374 -0.2922955 0.42381182 0.5169128
-0.49030825 -0.43439943 -0.49557456 0.04174099 -0.24104762 0.35935888 -0.28224576 0.050771017
-0.22213672 -0.40578547 -0.4255831 -0.01004255 0.20335028 0.2595171 0.30680588 0.04380282
-0.26203796 -0.059307627 0.116514914 0.284094 0.19954018 0.07712441 0.64188606 0.24717917
00000000: be88 ae3c 53ce 9c3e f445 7dbe ce36 21bf
00000010: 6dcc 013e a723 ddbe 6b40 fb3e a88f 6d3e
00000020: 4f8f 48be 0ead 483e 1431 023f 4b57 24bf
00000030: 3de1 a4be d00c 05bf b933 f43d 6ea4 893d
00000040: 391e 36be 1a38 b0bd 850b 88bd c5af 853d
00000050: 8eae 9bbe 673f edbd c577 8e3e a71c 55be
00000060: fdb8 cdbe 46a9 23be 345e e63e 5740 f9bd
00000070: f05a 0bbe b899 a63c a1f3 06be ec01 e0be
00000080: b92a cfbe e9b9 15be aa89 11bf 101c 973e
00000090: d278 b53e c1a7 95be ddfd d83e 6654 043f
000000a0: af09 fbbe 9a69 debe f3bb fdbe 9af8 2a3d
000000b0: 30d5 76be e3fd b73e 8482 90be 45f5 4f3d
000000c0: cf77 63be 1dc3 cfbe 07e6 d9be 8289 24bc
000000d0: 0e3b 503e 6ddf 843e a915 9d3e 966a 333d
000000e0: d729 86be 8eec 72bd 5f9f ee3d c574 913e
000000f0: 4354 4c3e 67f3 9d3d a552 243f 891c 7d3e

2.weight f4 [64, 64]
0.00923129 -0.11373336 0.050854646 0.21295603 -0.13113052 0.21910338 -0.21833193 -0.047569413
-0.12083002 -0.28721738 -0.30643556 0.23570977 0.15614378 0.39503157 -0.44085932 0.15718664
0.11689913 0.005648195 0.0053943647 0.048372474 0.285531 0.16510004 -0.16892423 0.17131959
0.28133073 0.054233912 -0.2996001 0.124867074 0.32872212 -0.008569259 0.00014727983 0.14794879
0.26117688 -0.061520237 0.13642396 -0.25812733 -0.1398289 0.19768825 -0.31556204 -0.10943044
0.18634641 0.14638664 0.20730549 0.12413969 -0.1176851 0.041436035 0.28768796 0.054375865
0.33368364 0.2271012 0.1038498 0.031520475 0.07438526 -0.08207898 -0.024656001 0.09057932
0.07812449 -0.067662746 -0.016970163 0.15753792 -0.25520542 -0.094376735 -0.34645388 -0.30218
0.020136943 -0.066923484 0.14602493 -0.2553891 0.06655572 -0.33374614 0.20604607 -0.027857352
0.012401112 0.109812476 0.1469411 -0.12327968 -0.30184987 -0.37517643 0.4080483 -0.16867083
-0.14224863 -0.24239537 0.031181496 -0.04197497 -0.29126 -0.34384334 0.21208858 -0.099363975
-0.06547532 -0.0365266 0.28302255 0.046850517 -0.09269809 -0.05218432 -0.15405366 0.0018139714
-0.25550163 -0.0871175 -0.22302468 0.23842819 0.051653583 -0.21292235 0.36157513 0.0669991
-0.18274352 -0.20039879 -0.19217248 -0.03573582 0.19824095 0.014554154 -0.25793266 0.16332927
-0.27113375 -0.39415473 -0.0831336 -0.18647988 0.122204065 0.012311841 0.11694069 -0.034099918
-0.074995056 0.07131295 0.08370193 0.030552085 0.40985802 0.022089597 0.3554642 0.13452807
-0.17207935 0.26938176 -0.34805396 -0.6075482 -0.13161315 -0.24373832 0.17532954 -0.07289241
-0.24947935 0.23439398 0.22408871 -0.18160708 -0.16638847 -0.24119051 0.2241122 0.19013776
-0.28059584 -0.14951201 0.24666518 -0.21319148 -0.6559014 -0.23428394 0.3182381 -0.39784673
-0.040654104 -0.09136545 0.44640106 -0.46578738 -0.40206212 -0.39028144 0.1401471 -0.6123654
-0.29244637 -0.05017683 -0.3299419 0.08222256 0.29034433 -0.15011893 0.30046275 0.62886554
-0.16930303 -0.39041823 -0.24597007 0.21939553 0.27603558 0.16076592 -0.31511652 -0.10896091
-0.5380792 -0.18179849 -0.16570689 -0.31335026 0.21146472 -0.090850115 -0.025706952 -0.14191605
-0.16932802 -0.22498216 -0.26069856 0.033899464 0.38444555 0.106696725 0.36931404 0.40386593
0.23739776 0.13344382 -0.031475775 -0.45725948 -0.13491109 -0.124068104 0.21245393 0.0033984496
0.19105414 0.3687013 0.16327181 -0.101851396 -0.017936124 -0.18367031 0.32470235 0.07185905
-0.35834923 -0.110287674 0.19561349 0.01261615 -0.55686986 -0.2580625 0.23528028 -0.22535895
-0.065759845 0.083752066 0.23153545 -0.15204154 -0.29381254 -0.06400965 0.10286145 -0.07191178
-0.10102888 -0.3711754 -0.34381202 0.07876599 -0.17149775 -0.49027988 0.13965172 -0.0504905
-0.19417642 -0.4087201 -0.1416313 0.07859327 0.17356901 -0.08804187 -0.27207914 0.1341102
0.03997678 -0.11736201 -0.052813828 -0.19435443 -0.16805609 -0.1162322 -0.01524764 -0.17716698
-0.44955656 0.040847223 0.03469884 0.055116616 0.22002092 -0.13957836 0.08849745 0.2653206
00000000: d63e 173c 09ed e8bd f64c 503d 2511 5a3e
00000010: 1447 06be a35c 603e 6892 5fbe 25d8 42bd
00000020: bb75 f7bd 280e 93be 1fe5 9cbe e75d 713e
00000030: 28e4 1f3e 9441 ca3e 50b8 e1be 89f5 203e
00000040: d068 ef3d 7e14 b93b 36c3 b03b 3722 463d
00000050: 1f31 923e fc0f 293e 79fa 2cbe 676e 2f3e
00000060: 950a 903e 6124 5e3d 2f65 99be 4fba ff3d
00000070: 444e a83e 1466 0cbc 216f 1a39 e37f 173e
00000080: fab8 853e a5fc 7bbd b9b2 0b3e 4429 84be
00000090: 4f2f 0fbe ca6e 4a3e 5991 a1be 111d e0bd
000000a0: 98d1 3e3e 61e6 153e e447 543e f33c fe3d
000000b0: e304 f1bd d5b8 293d d64b 933e 3ab9 5e3d
000000c0: 95d8 aa3e 388d 683e 34af d43d 9d1b 013d
000000d0: 4d57 983d 0619 a8bd 62fb c9bc a781 b93d
000000e0: bcff 9f3d c492 8abd 0305 8bbc 9f51 213e
000000f0: 49aa 82be 9748 c1bd 6762 b1be 56b7 9abe
00000100: 3bf6 a43c 2e0f 89bd 8f87 153e 5cc2 82be
00000110: 5e4e 883d c6e0 aabe befd 523e 1a35 e4bc
00000120: 092e 4b3c 5de5 e03d ba77 163e 0f7a fcbd
00000130: 118c 9abe 2017 c0be b5eb d03e 0cb8 2cbe
00000140: a0a9 11be 7e36 78be 5670 ff3c f2ed 2bbd
00000150: 0820 95be 3c0c b0be c02d 593e 577f cbbd
00000160: ed17 86bd eb9c 15bd 55e8 903e 54e6 3f3d
00000170: 7fd8 bdbd 3abf 55bd 3ec0 1dbe c8c2 ed3a
00000180: 1cd1 82be a96a b2bd 9560 64be 8526 743e
00000190: b592 533d 5108 5abe 6020 b93e d336 893d
000001a0: 1e21 3bbe 5735 4dbe ddc8 44be b95f 12bd
000001b0: adff 4a3e 8c74 6e3c c00f 84be ca3f 273e
000001c0: 0bd2 8abe a6ce c9be f341 aabd 95f4 3ebe
000001d0: 2046 fa3d 9bb7 493c 9a7e ef3d 5bac 0bbd
000001e0: 0297 99bd 860c 923d eb6b ab3d 5e48 fa3c
000001f0: e9d8 d13e 3ef5 b43c 67ff b53e bac1 093e
00000200: 9235 30be 68ec 893e 2134 b2be 4788 1bbf
00000210: 99c5 06be 8a96 79be 9689 333e 9e48 95bd
00000220: 8477 7fbe fa04 703e 8377 653e 35f7 39be
00000230: bd61 2abe a5fa 76be ab7d 653e 79b3 423e
00000240: 42aa 8fbe ad19 19be cc95 7c3e de4e 5abe
00000250: 27e9 27bf 21e8 6fbe 1bf0 a23e 91b2 cbbe
00000260: eb84 26bd cf1d bbbd ae8e e43e af7b eebe
00000270: 16db cdbe f8d2 c7be b982 0f3e fbc3 1cbf
00000280: 88bb 95be 3886 4dbd 25ee a8be 4d64 a83d
00000290: 03a8 943e c7b8 19be 41d6 993e 55fd 203f
000002a0: c65d 2dbe e6e4 c7be 94df 7bbe 39a9 603e
000002b0: 8954 8d3e d29f 243e f456 a1be e626 dfbd
000002c0: 8fbf 09bf 6229 3abe 11af 29be 726f a0be
000002d0: 358a 583e a00f babd 6397 d2bc 7152 11be
000002e0: 5364 2dbe b961 66be 487a 85be 2ada 0a3d
000002f0: 0cd6 c43e d083 da3d bb16 bd3e 84c7 ce3e
00000300: 6618 733e 7fa5 083e beec 00bd ea1d eabe
00000310: 2226 0abe 6b17 febd 868d 593e 86b8 5e3b
00000320: b2a3 433e 6bc6 bc3e ba30 273e 7797 d0bd
00000330: c7ee 92bc 1214 3cbe 633f a63e d62a 933d
00000340: 8d79 b7be 81de e1bd e74e 483e f8b3 4e3c
00000350: 068f 0ebf c520 84be 50ed 703e 7fc4 66be
00000360: 19ad 86bd 3486 ab3d a117 6d3e c7b0 1bbe
00000370: 996e 96be 7e17 83bd 06a9 d23d 7c46 93bd
00000380: 3be8 cebd b40a bebe 2108 b0be 1050 a13d
00000390: 1b9d 2fbe f705 fbbe dc00 0f3e 20cf 4ebd
000003a0: 2fd6 46be c343 d1be cc07 11be 82f5 a03d
000003b0: 13bc 313e 4c4f b4bd f54d 8bbe 2f54 093e
000003c0: b1be 233d 7e5b f0bd 5053 58bd d904 47be
000003d0: e516 2cbe 260b eebd 3dd1 79bc 436b 35be
000003e0: 472c e6be 6b4f 273d 5f20 0e3d f6c1 613d
000003f0: 2a4d 613e a1ed 0ebe 273e b53d 1ad8 873e

2.bias f4 [64]
-0.07255829 0.013215575 0.0905321 0.08553195 -0.007825534 0.03537724 -0.16187888 -0.04170288
-0.05793869 -0.07508184 0.10757182 -0.06320684 0.0974271 0.1581366 -0.047365658 -0.1214229
0.1081357 -0.0023387442 -0.12902193 0.19246519 0.13084275 -0.24836665 -0.08287405 0.15269026
0.05010306 -0.10474168 0.01737036 0.10624915 -0.06152095 -0.015333815 0.19705614 -0.12766477
-0.0030107286 -0.23764488 -0.08258521 0.12722099 -0.018147368 0.06351069 -0.16781703 0.072404966
-0.004507609 -0.11329383 0.0065148305 -0.01906196 -0.113599405 -0.060419895 0.093018144 -0.017738655
0.075068295 -0.14278272 0.11837549 -0.22587898 0.02704675 0.013452618 -0.062855095 0.15297183
-0.029559473 0.073695585 -0.17093728 -0.07205078 0.13753015 0.04205385 0.00016768683 -0.043779682
00000000: 7199 94bd 2486 583c e568 b93d 602b af3d
00000010: ab36 00bc bae7 103d 94c3 25be a4d0 2abd
00000020: 1f51 6dbd 82c4 99bd 9d4e dc3d 9672 81bd
00000030: dc87 c73d 90ee 213e 7e02 42bd 92ac f8bd
00000040: 4076 dd3d 9e45 19bb 531e 04be 9815 453e
00000050: a4fb 053e d453 7ebe dfb9 a9bd d65a 1c3e
00000060: de38 4d3d ce82 d6bd 494c 8e3c 2899 d93d
00000070: 64fd 7bbd ae3a 7bbc 16c9 493e 8eba 02be
00000080: a54f 45bb 2e59 73be 6f22 a9bd 3846 023e
00000090: caa9 94bc e511 823d 3ad8 2bbe 0e49 943d
000000a0: 91b4 93bb 9806 e8bd 5c7a d53b d427 9cbc
000000b0: cea6 e8bd da7a 77bd 4c80 be3d a850 91bc
000000c0: 68bd 993d a235 12be d96e f23d d24c 67be
000000d0: 2591 dd3c 5f68 5c3c 2cba 80bd a6a4 1c3e
000000e0: b526 f2bc b6ed 963d 2f0a 2fbe 5c8f 93bd
000000f0: b4d4 0c3e a840 2c3d 17d5 2f39 5352 33bd

4.weight f4 [1, 64]
-0.46359545 0.39265555 0.47353643 0.4573949 0.45288342 0.4568209 -0.4320959 -0.43179998
0.5457136 -0.43131313 0.39693126 -0.49052623 0.43287656 0.4344152 0.46466082 -0.38773403
0.77137756 -0.4023344 -0.4862191 0.48929384 0.4442236 -1.586996 -0.40764686 0.45388222
-0.5782771 -0.4248203 0.45174405 0.46480975 0.46923894 -0.65903085 0.46790683 -0.4621246
-0.36850107 -0.412203 -0.42661917 0.46507606 -0.3619035 -0.4983229 -0.43389007 -0.38819432
0.4353155 -0.62579006 0.37724838 0.437309 -0.40857318 -0.45216164 0.40162897 0.36880398
0.38832355 -0.41192603 0.4582095 -0.56215334 -0.47029713 -0.4159582 -0.39606526 0.40777493
0.4729854 0.39429575 -0.40009713 -0.40457273 0.4737529 -0.545251 0.4230747 -0.37052226
00000000: 625c edbe 260a c93e 5e73 f23e aa2f ea3e
00000010: 56e0 e73e 6ee4 e93e ac3b ddbe e314 ddbe
00000020: e3b3 0b3f 13d5 dcbe 933a cb3e 4126 fbbe
00000030: ffa1 dd3e ab6b de3e 06e8 ed3e 1385 c6be
00000040: 0079 453f c6fe cdbe b6f1 f8be b984 fa3e
00000050: 4771 e33e af22 cbbf 17b7 d0be 4063 e83e
00000060: f809 14bf 0c82 d9be ff4a e73e 8bfb ed3e
00000070: 1640 f03e 3fb6 28bf 7c91 ef3e 989b ecbe
00000080: 2cac bcbe 460c d3be d46d dabe 731e ee3e
00000090: 6a4b b9be 2e24 ffbe d726 debe 68c1 c6be
000000a0: ace1 de3e c733 20bf b326 c13e f7e6 df3e
000000b0: 8130 d1be bb81 e7be 50a2 cd3e e0d3 bc3e
000000c0: 58d2 c63e f8e7 d2be 709a ea3e 48e9 0fbf
000000d0: c9ca f0be 79f8 d4be 11c9 cabe e0c7 d03e
000000e0: 242b f23e 22e1 c93e 88d9 ccbe 2824 cfbe
000000f0: bd8f f23e 9295 0bbf 3f9d d83e 18b5 bdbe
