models/ppo_epoch_10000_policy.pth (torch, 24350 bytes, 6 tensors)

0.weight f4 [64, 14]
0	0xbe0b277a	-0.13589278
1	0x3da411f6	0.08011238
2	0xbc4778bd	-0.012174782
3	0xbebdf986	-0.37104434
4	0x3d37f6f4	0.044913247
5	0xbd799a74	-0.060938314
6	0x3eb95d0d	0.36203805
7	0x3e3d6e38	0.18499076
8	0xbe1b1fa1	-0.15148784
9	0xbe22c76d	-0.15896387
10	0x3e14f045	0.1454478
11	0xbc459f5e	-0.012061922
12	0x3ea51d41	0.3224888
13	0xbe32f9a2	-0.1747804
14	0xbe94454f	-0.28959128
15	0xbd1d1394	-0.03834875
16	0x3f0c92fb	0.54911774
17	0xbdb74a2d	-0.08949695
18	0xbe662dd1	-0.22478415
19	0xbd8b8a0b	-0.06813439
20	0x3eb4817d	0.35255042
21	0xbe56423c	-0.20923704
22	0xbcdf4952	-0.027256642
23	0xbe4ca80f	-0.19985984
24	0xbd0ba787	-0.034095313
25	0xbe779d08	-0.24180996
26	0xbc164cfd	-0.009173629
27	0xbe0eba16	-0.13938174
28	0x3df2c452	0.118538514
29	0xbdd957ba	-0.10612436
30	0xbd51f12c	-0.05125539
31	0xbec5659c	-0.38554084
32	0x3e1bac1d	0.15202375
33	0xbe8433b1	-0.25820687
34	0x3e74ae92	0.23894718
35	0x3e83f4bc	0.25772655
36	0xbec29816	-0.38006657
37	0xbe66a033	-0.22522049
38	0x3e0a5a83	0.1351109
39	0xbccc77a3	-0.024959391
40	0x3e383d4a	0.1799213
41	0x3d5ce037	0.053924765
42	0x3e5f627e	0.21814916
43	0x3e8295cf	0.2550492
44	0xbe5ad9ec	-0.21372193
45	0xbe80c2a5	-0.25148502
46	0xbe99879e	-0.2998628
47	0xbe1332a3	-0.14374785
48	0xbee7da42	-0.45283705
49	0xbe88b6f7	-0.2670209
50	0x3e98c62a	0.29838687
51	0x3d808afd	0.0627651
52	0xbd2eb67c	-0.0426545
53	0xbd815c5e	-0.06316446
54	0x3e178a14	0.14798766
55	0x3bfa191d	0.0076323883
56	0xbe908f47	-0.28234312
57	0xbea6ae6c	-0.32554948
58	0xbdcda989	-0.10042102
59	0x3e675258	0.22590005
60	0xbe51deb2	-0.20495108
61	0x3d969abf	0.07353734
62	0x3dcd4e18	0.10024661
63	0x3e09b345	0.13447292
64	0xbe297996	-0.16550288
65	0xbe9c9462	-0.30581957
66	0xbca26b0d	-0.019826436
67	0x3d639755	0.055564243
68	0xbda2ffba	-0.07958932
69	0xbe236cdf	-0.159595
70	0x3ecb71a8	0.3973515
71	0xbc1ea47d	-0.009682772
72	0xbec14e9b	-0.37755284
73	0xbed93082	-0.4241982
74	0xbdc7d92f	-0.09758221
75	0x3ddb797b	0.1071653
76	0x3dec3383	0.115332626
77	0xbc8fdd13	-0.017561471
78	0xbda851e1	-0.08218742
79	0xbdcba0c5	-0.09942774
80	0xbde20109	-0.11035354
81	0x3e51aa4d	0.20475121
82	0x3dd99dd8	0.106258094
83	0xbe0b90b4	-0.13629419
84	0x3e649c29	0.22325195
85	0xbe767244	-0.24067026
86	0x3e3b49ca	0.18289867
87	0x3eabb153	0.33533725
88	0x3dc9ad99	0.09847564
89	0x3b84796f	0.0040427963
90	0x3c9ac8c7	0.018894566
91	0xbe234607	-0.15944682
92	0xbbc2650d	-0.0059324563
93	0xbdda7788	-0.1066733
94	0xbd9e5317	-0.07730692
95	0xbe2f70fa	-0.17132941
96	0x3d1690ab	0.03675906
97	0xbe3728fa	-0.17886725
98	0x3e006f58	0.12542474
99	0xbe64afe9	-0.2233273
100	0x3e06b3b2	0.13154486
101	0x3e7859e7	0.24253045
102	0xbe47078d	-0.19436474
103	0xbdeb01d9	-0.11474962
104	0xbda232c6	-0.079198405
105	0x3d362c4e	0.044475846
106	0xbea1d781	-0.3160973
107	0x3d72fd2a	0.059323467
108	0xbe279eee	-0.1636922
109	0xbe982017	-0.29711983
110	0xbe368d96	-0.17827448
111	0x3ea2a1b4	0.31763995
112	0x3e06dc16	0.13169894
113	0xbe9f7e24	-0.31150925
114	0x3e4ab5bc	0.19795889
115	0x3eb1ce2e	0.34727615
116	0xbe1c00d6	-0.15234694
117	0x3d138de5	0.036023993
118	0x3dc1a893	0.09455981
119	0xbd91b72f	-0.071150176
120	0x3ebe5fb6	0.37182397
121	0xbd39f5f7	-0.045400586
122	0x3e88488c	0.2661785
123	0xbe3313e9	-0.17488064
124	0xbe4fb0d2	-0.20282295
125	0x3dc41875	0.09574977
126	0x3e525882	0.20541576
127	0xbdaf2e4a	-0.08553751
128	0xbe444842	-0.19168189
129	0xb8bfe7a6	-9.1507376e-05
130	0x3e4a0562	0.19728616
131	0xbbad9c49	-0.0052981717
132	0xbeabf5eb	-0.33586058
133	0xbe3a6884	-0.18203932
134	0x3d28ad18	0.0411807
135	0xbe06f470	-0.13179183
136	0xbe14a65b	-0.14516585
137	0xbe645a9c	-0.2230019
138	0x3dd85980	0.10563946
139	0xbe3d2a6b	-0.18473212
140	0x3e1d8367	0.15382157
141	0xbe3b00ec	-0.1826207
142	0xbeb540ca	-0.35400993
143	0x3e006936	0.12540135
144	0xbe2e4882	-0.17019847
145	0x3d7a9981	0.06118155
146	0x3d893758	0.06700009
147	0xbd8c00f7	-0.068361215
148	0xbe0dec8a	-0.13859764
149	0xbe963be3	-0.29342565
150	0xbc4aac94	-0.012370247
151	0x3e19df57	0.15026604
152	0xbeb9aa53	-0.3626276
153	0xbe8eb8e3	-0.27875432
154	0xbe54857e	-0.20754048
155	0xbe181b27	-0.14854108
156	0x3d759936	0.059960566
157	0x3ec3b967	0.38227388
158	0xbe3dad7b	-0.18523209
159	0x3e31fffa	0.17382804
160	0xbe6dc549	-0.2321979
161	0xbd930aa2	-0.071797624
162	0x3e2c2ce1	0.16813995
163	0x3d9620b9	0.0733046
164	0x3d6e7b84	0.058223262
165	0x3e99132d	0.29897442
166	0xbe1ebd1f	-0.15501831
167	0x3e198ea4	0.1499582
168	0x3d0bfc15	0.03417595
169	0xbca4046a	-0.020021636
170	0x3c6edcc2	0.014579
171	0x3eb8f07c	0.36120975
172	0x3d93ea59	0.07222433
173	0x3e71c9bc	0.23612112
174	0xbddcc5fd	-0.10779951
175	0x3c9945ca	0.018710036
176	0x3e88a4d2	0.26688248
177	0x3dd5ee90	0.10445893
178	0xbe8eb02e	-0.2786879
179	0xbc98341c	-0.018579535
180	0x3e0bb8ca	0.1364471
181	0xbdd8467b	-0.10560318
182	0x3d7d141f	0.061786767
183	0xbdf1ba90	-0.11803162
184	0x3e4b885c	0.19876236
185	0x3f05180b	0.5198981
186	0x3e658751	0.224149
187	0xbe14ca5d	-0.1453032
188	0xbddc865a	-0.10767813
189	0x3cc6736f	0.024224965
190	0x3e876674	0.26445353
191	0xbe839491	-0.25699285
192	0xbdfb7beb	-0.12279495
193	0xbe5f45cc	-0.21803969
194	0x3defcba4	0.11708763
195	0x3e84b16b	0.2591661
196	0xbe25e71e	-0.16201445
197	0x3e0e882e	0.13919136
198	0x3da54c82	0.08071233
199	0xbd6be022	-0.057586797
200	0xbdb3d267	-0.087803654
201	0xbe0c52da	-0.1370348
202	0xbe43cf9d	-0.19122167
203	0xbecf0e69	-0.40440682
204	0x3df9ee4e	0.12203656
205	0x3ea3b2e6	0.31972426
206	0x3e326f7b	0.17425339
207	0x3d8b373d	0.06797645
208	0x3e1d5cd7	0.15367447
209	0x3e78a8b1	0.242831
210	0xbe346f0e	-0.17620489
211	0x3d567fae	0.05236786
212	0x3e0791f6	0.13239273
213	0x3e9f5c53	0.31125125
214	0xbcae61c6	-0.021286856
215	0x3d0d7ea2	0.034544595
216	0x3ea45f86	0.3210413
217	0xbe955615	-0.29167238
218	0x3e4f27a2	0.20229962
219	0xbe2319ce	-0.15927812
220	0x3e6e56f9	0.23275365
221	0x3e3e8138	0.1860398
222	0xbe89043d	-0.26761046
223	0x3d3921be	0.045198195
224	0x3e7c8465	0.2465988
225	0xbe0f76da	-0.14010182
226	0xbd51a3e5	-0.051181693
227	0x3e4eb064	0.20184475
228	0xbe6fa6b8	-0.23403442
229	0x3e1a3215	0.15058167
230	0x3cfc8170	0.03082344
231	0x3e25fddd	0.16210122
232	0x3e733c5e	0.23753497
233	0xbe811645	-0.25212303
234	0xbe81d031	-0.2535415
235	0xbe40a410	-0.18812585
236	0xbd7d582b	-0.06185166
237	0x3d48926d	0.048967768
238	0x3e8a1537	0.2696931
239	0x3cb0fc21	0.0216046
240	0x3e035751	0.12826277
241	0x3b940e44	0.004518302
242	0x3d21851d	0.039433587
243	0xbd1cfc24	-0.038326398
244	0xbed7b9e1	-0.42134002
245	0xbed8c6d4	-0.42339194
246	0x3e8a9622	0.27067667
247	0x3e9233a9	0.2855504
248	0x3e3dfea4	0.18554169
249	0x3e3239ea	0.17404905
250	0xbd10903d	-0.035293806
251	0xbd8719a6	-0.06596689
252	0x3e17e0d6	0.14831862
253	0xbdb993e8	-0.09061414
254	0x3ce93700	0.028468609
255	0xbe219165	-0.1577812

0.bias f4 [64]
0	0x3df2052e	0.11817394
1	0x3dc21142	0.09475948
2	0xbe5bf0e0	-0.21478605
3	0xbe5a078f	-0.21291946
4	0x3d827bdc	0.063712806
5	0x3c947e4d	0.018126631
6	0xbd72a15f	-0.059235927
7	0xbdf9e664	-0.12202147
8	0xbe007ad1	-0.1254685
9	0x3e89e88d	0.26935235
10	0xbe71eba0	-0.2362504
11	0x3da5a6c0	0.08088446
12	0x3dbb2f68	0.091399014
13	0xbe9f9ba6	-0.31173438
14	0xbe2fa337	-0.17152105
15	0xbe360367	-0.17774735
16	0xbe087380	-0.1332531
17	0xbe7a3cd0	-0.2443726
18	0xbe18ccda	-0.14921895
19	0xbe559438	-0.20857322
20	0x3e4d46f2	0.20046595
21	0x3d67e087	0.05661061
22	0x3e6552a1	0.22394802
23	0x3e7794e6	0.24177894
24	0xbe0d949a	-0.13826218
25	0xbe45be73	-0.19310932
26	0xbd934d99	-0.07192535
27	0x3d845ada	0.06462641
28	0xbc150ede	-0.009097783
29	0xbdbc6523	-0.09198978
30	0x3d5d8f52	0.05409176
31	0x3e19f66a	0.15035406
32	0xbe43d706	-0.19124994
33	0x3d1bdbda	0.038051464
34	0xbbac88ca	-0.00526533
35	0x3df58f55	0.11990229
36	0x3d367bbe	0.044551603
37	0x3e26a73d	0.16274734
38	0x3e8270d8	0.25476718
39	0xbe11bb1f	-0.14231537
40	0x3e211e51	0.15734221
41	0xbe8ee12a	-0.27906162
42	0x3e32451f	0.1740918
43	0xbd859db0	-0.06524217
44	0xbd6937c4	-0.056937948
45	0xbe217b18	-0.15769613
46	0xbe0970b7	-0.13421904
47	0xbe17c533	-0.1482132
48	0x3e0a0257	0.13477455
49	0x3ac2d6aa	0.0014865
50	0x3e4b4508	0.19850552
51	0x3c92dac8	0.017926589
52	0xbd53d2e5	-0.051714797
53	0xbe123a3c	-0.14280027
54	0xbadaa4f0	-0.0016681235
55	0x3e23fdeb	0.16014831
56	0xbc865ff3	-0.016403174
57	0xbe2ea5c3	-0.1705542
58	0x3e28d4bf	0.16487406
59	0x3da31c45	0.07964376
60	0xbe65685f	-0.22403096
61	0xbe8dde1a	-0.27708513
62	0x3d66813c	0.05627559
63	0xbe112ac3	-0.14176469

2.weight f4 [64, 64]
0	0xbe225fac	-0.15856808
1	0xbe6501a8	-0.22363913
2	0x3d437708	0.04772094
3	0xbdfface4	-0.12484148
4	0x3e8da1b9	0.27662447
5	0xb9aace3c	-0.00032578583
6	0x3dc0eb88	0.09419924
7	0x3df66eaa	0.12032826
8	0xbb0e543a	-0.0021717683
9	0xbd2170e7	-0.039414313
10	0x3e3920fc	0.18078989
11	0x3d89cae3	0.06728151
12	0x3d8134a5	0.06308869
13	0x3e88a7fe	0.26690668
14	0xbe90a994	-0.28254378
15	0x3db27fdd	0.08715794
16	0x3e2fea0e	0.17179129
17	0xbdcb88bc	-0.099381894
18	0x3d807a42	0.06273319
19	0xbdc898e7	-0.09794789
20	0x3e06d587	0.13167392
21	0x3e819b42	0.25313765
22	0x3e29480e	0.16531393
23	0x3e057fc4	0.1303702
24	0x3e558fbf	0.20855616
25	0x3e553373	0.20820408
26	0xbcda42ef	-0.026643245
27	0x3ecd2319	0.4006584
28	0xbb2efd6a	-0.002670134
29	0xbe2d033c	-0.16895765
30	0x3dd2773e	0.1027665
31	0xbdbe1c30	-0.0928272
32	0xbdc06e0f	-0.09395992
33	0x3eb7f354	0.35927832
34	0x3e607632	0.21920088
35	0xbecb8bff	-0.39755246
36	0x3c04ae7f	0.008098244
37	0xbe0e02cf	-0.13868259
38	0x3cf51730	0.029918283
39	0x3dac8361	0.08423496
40	0x3e479688	0.19491017
41	0x3ca78ade	0.02045196
42	0xbe7cb614	-0.24678832
43	0x3d37d95d	0.04488503
44	0x3e283a45	0.16428478
45	0xbdba12df	-0.090856306
46	0xbe7baf94	-0.24578696
47	0x3def94c4	0.11698297
48	0xbe6878e6	-0.22702369
49	0xbe967580	-0.2938652
50	0x3e14b595	0.14522393
51	0x3dee1273	0.11624613
52	0x3b9d6e11	0.0048043807
53	0xbea76d57	-0.32700607
54	0xbe03733b	-0.12836926
55	0x3d8b17db	0.067916594
56	0xbd86be71	-0.065792926
57	0x3e0ccdcb	0.13750379
58	0xbe5b1354	-0.21394092
59	0xbe5b31fc	-0.21405786
60	0x3d6c3939	0.05767176
61	0x3e8421f8	0.25807166
62	0xbe8fafd8	-0.28063846
63	0x3dc16521	0.09443117
64	0xbe7ce1f8	-0.24695575
65	0x3e92e814	0.28692687
66	0xbd2a2efb	-0.04154871
67	0x3cb2cd87	0.021826519
68	0xbcbe3bc7	-0.023221863
69	0xbe5244c1	-0.2053404
70	0x3e2d2cd8	0.16911638
71	0x3d722f9f	0.059127446
72	0x3e6f7830	0.23385692
73	0x3cadb95c	0.02120655
74	0x3d3980c3	0.045288812
75	0x3e3e6666	0.1859375
76	0x3e37435d	0.17896791
77	0x3e3e5b85	0.185896
78	0x3ca1ba62	0.019742195
79	0x3e1442ef	0.14478658
80	0xbc0a5a4b	-0.008444379
81	0x3e758fc1	0.23980619
82	0xbca175e6	-0.019709539
83	0x3e235eb9	0.15954103
84	0xbdda691e	-0.10664581
85	0x3e7e46e3	0.24831729
86	0x3d3bdbc3	0.045863878
87	0xbe2ed8ce	-0.17074892
88	0x3de42c54	0.111412674
89	0xbd9cb2bf	-0.076512806
90	0x3e1f94da	0.15584126
91	0xbd16612b	-0.03671376
92	0xbcca7282	-0.024712805
93	0xbda5ae4e	-0.080898866
94	0xbdc19b25	-0.094534196
95	0x3d8d88d2	0.06910862
96	0x3e9b0860	0.30279827
97	0x3eaf1270	0.34193754
98	0x3ea26e9f	0.31725022
99	0xbe0f9cbe	-0.14024636
100	0x3ca3c08a	0.01998927
101	0xbd0214fc	-0.031758294
102	0x3d194bc5	0.037425775
103	0x3e0fb68b	0.14034478
104	0xbd33bd73	-0.043881845
105	0x3eb7ae23	0.35875043
106	0xbe4bf1f2	-0.19916514
107	0x3e1e480e	0.15457174
108	0x3c99f62b	0.01879414
109	0xbdf96b98	-0.12178725
110	0xbd05865f	-0.03259885
111	0xbeb27c04	-0.3486024
112	0x3c702d11	0.014659182
113	0x3c8874c8	0.016657248
114	0x3dbf7ad8	0.093496025
115	0x3d086320	0.033297658
116	0xbe18968e	-0.14901182
117	0x3e07c2a3	0.13257842
118	0xbda71f07	-0.08160215
119	0xbbb7416c	-0.0055925157
120	0x3e2995a9	0.16560997
121	0x3e13355f	0.14375828
122	0x3c7bd499	0.015370511
123	0x3e2ff8ad	0.17184706
124	0x3da1f0ea	0.07907279
125	0x3da24b13	0.079244755
126	0xbd5239d5	-0.051324684
127	0xbe4c8717	-0.19973408
128	0x3e9505ab	0.29105887
129	0x3ea4bbfb	0.32174668
130	0x3e77abac	0.24186581
131	0xbe24d2f2	-0.16096094
132	0xbd1bb6e6	-0.038016222
133	0x3c889fcb	0.016677758
134	0x3d254437	0.040348258
135	0x3d8a5fda	0.067565635
136	0xbe5cab11	-0.21549632
137	0xbe0cdd49	-0.13756289
138	0xbc8399e3	-0.01606459
139	0xbe98d920	-0.29853153
140	0xbe804634	-0.2505356
141	0xbd22ac27	-0.03971496
142	0xbe51f585	-0.20503815
143	0xbe12e215	-0.14344056
144	0xbd2b241d	-0.041782487
145	0xbe51a4c9	-0.20473017
146	0x3d22ce41	0.03974748
147	0xbd5f74ce	-0.054554753
148	0xbd9094b6	-0.07059614
149	0xbe2b88ed	-0.16751452
150	0xbdaef398	-0.085425556
151	0xbe11f696	-0.14254221
152	0xbe5ad56d	-0.21370478
153	0x3d835ac3	0.06413796
154	0xbd5aefb2	-0.053451248
155	0x3cac3b01	0.021024229
156	0x3ded46fc	0.11585805
157	0x3e864814	0.26226866
158	0x3dc435b0	0.095805526
159	0x3e51f600	0.20503998
160	0xbc4ffb40	-0.01269418
161	0xbe568aeb	-0.2095143
162	0xbe4cdda4	-0.20006424
163	0xbd2d9a03	-0.042383205
164	0xbe461187	-0.19342624
165	0x3c531ac7	0.012884802
166	0xbda06738	-0.078321874
167	0x3d730602	0.0593319
168	0xbe9e7473	-0.3094822
169	0x3bf365d2	0.0074279094
170	0x3e4d69b2	0.20059851
171	0xbac14a13	-0.0014746807
172	0x3e17da88	0.14829457
173	0x3e6a9254	0.22907382
174	0x3e8d77de	0.27630514
175	0xbe1e1bf5	-0.15440352
176	0xbd818d75	-0.06325809
177	0x3ebc76c9	0.36809376
178	0xbd8ebe62	-0.069699064
179	0x3d89f79d	0.067366816
180	0x3dcd778a	0.10032566
181	0x3c78592a	0.015157977
182	0xbd4a9730	-0.04946059
183	0x3e2eefe0	0.17083693
184	0x3e7a6bcb	0.24455182
185	0x3ca8a247	0.020585192
186	0xbe62d930	-0.22153163
187	0x3d042cc5	0.032269258
188	0xbe56e7d5	-0.20986874
189	0x3d431541	0.04762769
190	0x3e25da46	0.16196546
191	0x3e4e3675	0.20137961
192	0xbde289ab	-0.11061414
193	0x3ee949c3	0.45564088
194	0xbc35cfde	-0.011096923
195	0xbe0403d6	-0.12892088
196	0x3e0d46e1	0.1379657
197	0xbe511879	-0.20419492
198	0x3d28570d	0.041098643
199	0x3cac978d	0.021068359
200	0x3e10ef4e	0.14153787
201	0xbe038f03	-0.12847523
202	0xbab2ff40	-0.0013656393
203	0x3d150392	0.036380358
204	0x3da2c5e9	0.079479046
205	0x3e3dced7	0.18535934
206	0x3d9b9fc6	0.07598834
207	0x3d71e13c	0.05905269
208	0xbb47f6e5	-0.003051215
209	0x3c422a9c	0.011850979
210	0x3d18269b	0.037146192
211	0x3ec2297f	0.37922284
212	0x3d3139a8	0.043267876
213	0x3dada853	0.08479371
214	0xbc5f6b64	-0.013636444
215	0xbe8dd834	-0.27704012
216	0x3d8dbd3a	0.06920858
217	0xbe18f1d8	-0.14936006
218	0x3e41342c	0.18867558
219	0xbe79927a	-0.24372283
220	0xbd4166d5	-0.04721721
221	0x3e89a13c	0.26880825
222	0x3e11695c	0.14200348
223	0x3ea00450	0.3125329
224	0x3e74d566	0.2390953
225	0x3ecad03a	0.3961199
226	0x3e8af313	0.27138576
227	0xbd0f9f91	-0.035064284
228	0xbd26f6ad	-0.040762592
229	0x3e136ce0	0.14397001
230	0xbce58471	-0.028017255
231	0x3e39da94	0.18149787
232	0xbe058124	-0.13037544
233	0x3ed9c29a	0.42531282
234	0x3d9ef58d	0.07761679
235	0x3e59727b	0.21235077
236	0xbd5bea65	-0.053690333
237	0xbdade547	-0.08490997
238	0xbd5b8103	-0.053589832
239	0xbebc2413	-0.36746272
240	0x3e798428	0.2436682
241	0x3e868a77	0.26277515
242	0x3d80997f	0.06279277
243	0xbd25620f	-0.04037672
244	0xba62cdf1	-0.00086519035
245	0x3dd68c7d	0.10476015
246	0x3e3e86b4	0.18606073
247	0x3d0be55c	0.03415428
248	0x3ea90f1b	0.33019337
249	0x3e16c0bd	0.14721961
250	0xbc05d532	-0.0081685055
251	0x3e042fa7	0.12908803
252	0xbdabd62e	-0.08390461
253	0x3ca8770c	0.020564578
254	0xbc27df1d	-0.010246065
255	0xbe4bcb80	-0.19901848

2.bias f4 [64]
0	0xbd576ad6	-0.05259212
1	0x3dacd3fe	0.08438872
2	0x3d58c01f	0.052917596
3	0xbe33d2a5	-0.17560823
4	0xbd6d8c8f	-0.057995375
5	0xbd20044d	-0.0390666
6	0xbc527456	-0.012845119
7	0x3d2958f4	0.041344598
8	0xbd0e42b5	-0.034731586
9	0xbe1643d1	-0.14674307
10	0x3df03ba4	0.117301255
11	0x3a8a7826	0.0010564371
12	0x3d3241db	0.043519836
13	0x3d6bfabd	0.05761217
14	0xbe3f75fb	-0.1869735
15	0x3d4b85a9	0.049688015
16	0xbdd8000b	-0.10546883
17	0xbda6c9cb	-0.08143958
18	0xbe1f7964	-0.1557365
19	0xbc8d6581	-0.017260315
20	0x3c526f24	0.012843881
21	0x3d125fc2	0.035735853
22	0x3da77bb1	0.08177889
23	0x3ca046c1	0.019564988
24	0x3e0f4163	0.13989787
25	0xbe09d7fd	-0.13461299
26	0x3d1cd9f8	0.03829381
27	0xbd054749	-0.032538686
28	0x3d2fd8dd	0.042931426
29	0xbcdfc387	-0.027314914
30	0xbd96f292	-0.07370485
31	0xbded8729	-0.115980454
32	0x3da7a726	0.08186178
33	0x3cbc03ac	0.02295097
34	0xbd6346e7	-0.05548754
35	0x3e056df9	0.13030232
36	0x3da71560	0.08158374
37	0x3dac49c7	0.084125094
38	0x3d9bf746	0.07615523
39	0xbcebf071	-0.028801175
40	0x3d7572bf	0.059923884
41	0x3e01f281	0.12690164
42	0x3dab492e	0.08363567
43	0xbe168367	-0.14698564
44	0x3d6d9c5c	0.058010444
45	0x3d86f134	0.065889746
46	0x3d59dd40	0.053189516
47	0x3c6cfa6e	0.014464004
48	0xbca14f35	-0.01969109
49	0x3da68679	0.081311174
50	0xbdf921fa	-0.12164684
51	0x3db45a53	0.088062905
52	0x3dfb3434	0.12265816
53	0x3d9ab206	0.075534865
54	0x3d1a1cb1	0.03762502
55	0xbd905a9e	-0.07048534
56	0xbe00d877	-0.12582575
57	0xbdb46d9a	-0.08809967
58	0x3c04c041	0.0081024775
59	0x3c34996f	0.01102291
60	0xbd3fea11	-0.046854082
61	0x3c61d2ab	0.013783137
62	0x3c5709aa	0.013124863
63	0x3d931b41	0.07182933

4.weight f4 [4, 64]
0	0xbe487885	-0.19577225
1	0xbef6f8d7	-0.48236725
2	0x3edea6f5	0.43486753
3	0xbe1aac09	-0.15104689
4	0xba31e609	-0.0006786292
5	0xbe654dec	-0.22393006
6	0xbc100afd	-0.008791682
7	0xbedb32d1	-0.42812207
8	0x3e864608	0.26225305
9	0xbe4a447d	-0.19752689
10	0x3e8ac335	0.27102056
11	0xbf065b63	-0.52483195
12	0x3ec44a00	0.38337708
13	0x3e8c93fa	0.27456647
14	0xbe6bbc18	-0.23020971
15	0xbe2a3de1	-0.16625167
16	0xbe3db4fd	-0.18526073
17	0x3ec7d211	0.39027455
18	0x3f38740a	0.7205206
19	0x3ed72285	0.42018524
20	0x3f26e7fd	0.65197736
21	0x3d7e0166	0.062013052
22	0x3ea207bd	0.3164653
23	0xbec1e269	-0.3786805
24	0x3d6b2d4a	0.057416238
25	0xbd957a40	-0.07298708
26	0xbe8e0b08	-0.2774279
27	0xbe4e1e34	-0.20128709
28	0x3edec937	0.4351289
29	0xbf0938e3	-0.5360243
30	0xbda893aa	-0.0823129
31	0xbe800a4f	-0.25007865
32	0xbdb7b1a6	-0.089694306
33	0xbed5f865	-0.41791072
34	0xbeec60e7	-0.4616768
35	0x3e29f63c	0.16597837
36	0x3e8ba062	0.272708
37	0x3eccb602	0.3998261
38	0x3ea507f3	0.32232627
39	0xbac46786	-0.0014984466
40	0x3ea51dd4	0.3224932
41	0x3ec427e3	0.3831168
42	0xbc905339	-0.017617809
43	0x3f231e31	0.63717943
44	0x3ea4355b	0.32071957
45	0x3e31358e	0.17305586
46	0xbebbfbd7	-0.36715576
47	0x3e97634f	0.29567954
48	0x3e0f38b7	0.13986479
49	0xbed95aa4	-0.42451966
50	0xbe8e5ce3	-0.27805242
51	0xbe30d052	-0.17266968
52	0xbf23b9ff	-0.6395568
53	0x3e9e9e6f	0.3098025
54	0xbe3c78a9	-0.18405403
55	0x3e991331	0.29897454
56	0xbef8604a	-0.48510963
57	0xbe8404af	-0.25784823
58	0x3ed0377e	0.40667337
59	0xbe3dfa75	-0.18552573
60	0xbeb64e26	-0.35606498
61	0xbe8674c5	-0.26260963
62	0x3f0f53f3	0.5598747
63	0x3ea4fa1f	0.32222077
64	0x3f16a468	0.58844614
65	0x3dac1156	0.08401744
66	0x3ca73fbc	0.020416133
67	0x3d88a569	0.066721745
68	0x3eaedbd4	0.3415209
69	0x3ebf826e	0.37404197
70	0xbec9a24d	-0.39381638
71	0xbe7d9e73	-0.24767475
72	0x3ea622b1	0.32448342
73	0x3f22aade	0.6354197
74	0x3cd425c2	0.02589691
75	0xbd6962ab	-0.056978863
76	0xbdcebb45	-0.100943126
77	0xbe3150a9	-0.17315926
78	0x3f3b3cdd	0.73139745
79	0x3e019a57	0.12656532
80	0x3d9e6ff9	0.07736201
81	0xbd44ea10	-0.048074782
82	0xbe9120c2	-0.28345305
83	0x3e0a7a79	0.13523282
84	0xbeb61f6c	-0.35570848
85	0xbed2b1c5	-0.41151252
86	0xbefd2dca	-0.49448997
87	0x3df99652	0.121868744
88	0x3e3e5655	0.1858762
89	0x3f165dda	0.58736956
90	0x3efc2609	0.4924777
91	0x3f078c2f	0.5294828
92	0x3e14e778	0.14541423
93	0x3eb68f84	0.3565637
94	0xbe9a2e94	-0.3011366
95	0xbe98b64c	-0.2982658
96	0x3eba6810	0.36407518
97	0x3ea46c90	0.32114077
98	0x3eaa87ea	0.3330682
99	0x3e2d1371	0.16901948
100	0x3e2e5f72	0.17028597
101	0x3d9eaf52	0.077482834
102	0x3ea12181	0.31470874
103	0xbeb898ad	-0.36053982
104	0xbe2dbe42	-0.16967109
105	0xbf0b4513	-0.54402274
106	0x3ec51708	0.38494134
107	0xbe43a74d	-0.19106789
108	0xbf441816	-0.7659925
109	0xbefc11ed	-0.49232426
110	0xbd60615e	-0.054780357
111	0xbdc86c42	-0.097862735
112	0xbe8f7a1f	-0.28022859
113	0x3e978dc6	0.29600352
114	0xbe193eba	-0.14965335
115	0x3ed9df72	0.42553288
116	0x3ee02c2c	0.437837
117	0xbf10bd34	-0.565387
118	0xbea0af09	-0.3138354
119	0xbe818eb2	-0.2530418
120	0x3ef4ec51	0.47836545
121	0xbdc68d04	-0.09694865
122	0xbd1eae58	-0.038740486
123	0xbec4f6db	-0.38469586
124	0x3f147b0b	0.5800025
125	0xbe1e14b9	-0.15437593
126	0xbee68711	-0.45024922
127	0xbf1605ee	-0.586028
128	0x3d6efa46	0.058344148
129	0xbe511a78	-0.20420253
130	0xbe9a9123	-0.30188856
131	0xbeab3684	-0.3344003
132	0xbf07cd6b	-0.5304782
133	0xbea528dd	-0.3225774
134	0x3ddffbca	0.10936697
135	0x3ed0eff6	0.40808076
136	0xbdb22840	-0.08699083
137	0xbe809ae3	-0.2511817
138	0xbf2354c5	-0.63801223
139	0x3e85c8c9	0.2612975
140	0xbf0e6385	-0.55620605
141	0xbefa79d0	-0.4892106
142	0xbe387f27	-0.18017255
143	0x3f01f1db	0.5075967
144	0xbe8b9454	-0.27261603
145	0x3bbe9a01	0.0058166985
146	0xbea2fc2c	-0.31833017
147	0xbeef9fe2	-0.46801668
148	0xbe425812	-0.18978909
149	0x3de08c80	0.10964298
150	0xbe0f6b7d	-0.14005847
151	0x3f0f6596	0.5601438
152	0x3e014495	0.12623818
153	0xbe040780	-0.12893486
154	0x3d81a109	0.06329543
155	0xbea8ba27	-0.32954523
156	0xbef4bfc5	-0.4780256
157	0x3ece8632	0.40336758
158	0xbe2c8614	-0.16848022
159	0x3f52fc92	0.8241664
160	0x3c27fe22	0.010253461
161	0xbe850ddd	-0.2598714
162	0xbdc55d9c	-0.09636995
163	0x3e80eceb	0.25180754
164	0xbf43c598	-0.7647338
165	0xbe2807a7	-0.16409169
166	0xbe4e8ce4	-0.20170933
167	0xbe9bbb3f	-0.30416295
168	0x3e55d4ec	0.20882004
169	0x3e4b3e29	0.19847931
170	0x3e498b8d	0.1968214
171	0xbe8c449b	-0.27396092
172	0x3e5a5c9a	0.21324387
173	0x3ef60ee2	0.4805823
174	0x3f200676	0.6250986
175	0x3e973c36	0.29538125
176	0xbeb1ae0b	-0.34703097
177	0x3ebf0616	0.3730933
178	0xbea70514	-0.32621062
179	0xbf1571bc	-0.5837667
180	0xbde7d065	-0.11319045
181	0x3e7283bf	0.2368307
182	0x3ed7fe3a	0.42186147
183	0x3edc6840	0.43048286
184	0xbd926dd9	-0.07149858
185	0xbe8d3307	-0.27577993
186	0x3e6c1378	0.23054302
187	0x3f0cd2aa	0.5500895
188	0x3d68de83	0.05685283
189	0xbde1cd6e	-0.11025511
190	0xbe34a4ca	-0.17640987
191	0x3e4e7c97	0.20164715
192	0xbe9619d6	-0.29316586
193	0x3eda091d	0.42585078
194	0xbd2e450b	-0.042546313
195	0x3ef924fa	0.48661023
196	0x3e81ae33	0.25328216
197	0x3e04c572	0.12965944
198	0x3e9bc91e	0.30426878
199	0x3e4d0b9e	0.20023963
200	0xbef9f08c	-0.48816335
201	0x3df2a085	0.11847023
202	0x3c8ffbf2	0.017576192
203	0x3defd6ad	0.11710868
204	0x3e184928	0.14871657
205	0x3e3b4a69	0.18290104
206	0xbd8c9f79	-0.068663545
207	0xbf0110bf	-0.5041618
208	0x3f285e97	0.6576933
209	0xbeb4a3f7	-0.35281345
210	0xbdf14497	-0.117806606
211	0xbd1c5761	-0.03816927
212	0xbe879425	-0.26480213
213	0x3ea12ea9	0.3148091
214	0x3e87362f	0.26408526
215	0xbe98545c	-0.2975186
216	0xbf3c489b	-0.7354829
217	0xbe679a2c	-0.22617406
218	0xbebf87b2	-0.37408215
219	0xbd9d641b	-0.07685109
220	0xbd8cbd4c	-0.06872043
221	0xbd6ca9ae	-0.057779007
222	0x3f2825eb	0.6568286
223	0xbe84677a	-0.25860196
224	0xbecaba1a	-0.3959511
225	0x3eeb5bf7	0.459686
226	0x3ed434b9	0.41446474
227	0xbf18d393	-0.59697837
228	0x3eacafb3	0.33727798
229	0xbecd095a	-0.40046197
230	0xbec45ae2	-0.38350588
231	0x3f0d9d43	0.5531809
232	0xbf009aaf	-0.5023603
233	0xbc5696e4	-0.013097499
234	0xbf0907ed	-0.5352772
235	0xbe7ff9f2	-0.2499769
236	0x3e513f6c	0.2043435
237	0xbe3ea188	-0.18616307
238	0xbd664750	-0.056220353
239	0xbf07f307	-0.53105205
240	0x3ed6a834	0.41925204
241	0xbe31f67e	-0.17379186
242	0x3f1e54de	0.6184825
243	0x3e70740a	0.23481765
244	0x3ea416bf	0.32048604
245	0x3ddce4ae	0.10785805
246	0x3da4976e	0.080366954
247	0xbe6b8837	-0.2300118
248	0xbbab6ec2	-0.005231709
249	0x3f152928	0.58265924
250	0xbeafe0dd	-0.34351245
251	0xbdb14e56	-0.086575195
252	0xbe1df725	-0.1542631
253	0x3ef486e5	0.47759166
254	0xbb98fb22	-0.0046686092
255	0xbdb45777	-0.08805745

4.bias f4 [4]
0	0xbe010d44	-0.12602717
1	0xbde8eadb	-0.1137292
2	0x3cf7238c	0.030168317
3	0xbdeb244c	-0.114815325
